hw1/model.npy (npy, 2680 bytes, 1 tensors)

array f8 [325]
0	0xbf7ffa703e384bdb	-0.007807196092033809
1	0x3f608250659e864f	0.002015263581555605
2	0x3f5176d33190f1c4	0.0010659277379679736
3	0x3f6cef3cf815bb40	0.003532046394574634
4	0x3f62f6dcc653b18c	0.0023149787908691207
5	0x3f76995c35851e94	0.005517349425936086
6	0x3f7a4f1d2690a685	0.006423105115609955
7	0x3f6f7cb8aacb49f7	0.003843651464515259
8	0x3f6266929a6f7c3c	0.0022461760849945816
9	0x3f818ffa109e342d	0.008575395233288397
10	0xbf8d27166909cfd7	-0.014234709816470499
11	0xbf81ba31fed28a53	-0.008655920590460974
12	0xbf7a6e848d9faa35	-0.006453054224020029
13	0xbf83b90d464ffd47	-0.009630302150979942
14	0xbf757fabbff7bda6	-0.005248709581322874
15	0x3f69746e0daf0002	0.003107275913379227
16	0x3f6ad6dbc832789f	0.0032762806527691503
17	0x3f80226ab83e8dca	0.007878144977275254
18	0x3f98dbe0083391c8	0.02427625703866612
19	0x3f9a9edb972b9bea	0.025996619321542548
20	0x3fb3f85e712a2a2e	0.07800855887232025
21	0x3fa056da1f3c439a	0.03191262847224792
22	0x3fa81b0657edff39	0.047081182702639564
23	0x3f9c49a68b276d7d	0.02762470459297849
24	0x3f9b4d27f35dbb0f	0.02666151450051318
25	0x3fa2aac57d15af34	0.03645913268959902
26	0x3fbe41790109d95e	0.11818653369286866
27	0x3fd0ecb781ae59e3	0.2644480482498734
28	0xbfa8f7e07be08880	-0.04876615059062406
29	0xbf9b715ccf632414	-0.026799631269373306
30	0xbfa121933fd96cc3	-0.03345928339396089
31	0x3f90a58d8b21cad0	0.01625653421110479
32	0x3fa46648547c2476	0.03984285384473989
33	0x3f4a4cd216ef00fa	0.0008026147678421851
34	0x3fa071f7acff6f79	0.032119502895254955
35	0x3fad9813ebc48505	0.057800886659842766
36	0x3fbef8f00870006a	0.12098598676675612
37	0xbfa196ab2af4b32c	-0.03435263537753594
38	0xbf8994b5f904a94f	-0.012490674650128012
39	0x3f61d98453cd57bd	0.00217891545473045
40	0xbf7d633fb54894de	-0.0071747292136354595
41	0xbfa5da586f619fd3	-0.04268146857867774
42	0xbf8771efc61e134f	-0.011447785600248088
43	0x3f8c90342d51163a	0.013946921952206915
44	0xbfa5ea2a51eef4b5	-0.04280216455615841
45	0xbfac784013edea03	-0.05560493701246474
46	0xbf80fe557f3cd28d	-0.008297603555186295
47	0xbf370f7768ac7985	-0.00035187402015592783
48	0x3f76662313ce5641	0.0054684992036491695
49	0x3f5ad5d4b722c3cb	0.0016378953264786107
50	0xbf6fd8040669b92d	-0.0038871840109130557
51	0xbf878dae496972a6	-0.011500703444818083
52	0x3f79af45a4f1b05d	0.0062706680756542095
53	0x3fa37ebfbc9980d9	0.03807639291039928
54	0x3fb58215afc89ca0	0.0840161852034833
55	0xbf883a537b22461d	-0.011829998202560305
56	0xbf586b34a77d1a7f	-0.0014904035760580356
57	0x3f78ad82057b511b	0.006024845024246407
58	0x3f7b096b13178eec	0.006600778827735115
59	0xbf79a8bac016e059	-0.006264428609419858
60	0xbf86c78b7ea4d795	-0.011122789194455677
61	0x3f7c771a67d77d80	0.006949523112296574
62	0x3f9db0ea3e2c2b9e	0.02899518970938752
63	0x3fafda48d4d85564	0.06221225355344975
64	0x3f73105dc288f314	0.00465427994691649
65	0xbf86988d48f14c9b	-0.011033157146960007
66	0xbf8bd56d38deb319	-0.013590672777206646
67	0xbf8cd3c053a656d8	-0.014075758507526556
68	0xbf82d399a3c92cfc	-0.009192657767150163
69	0xbf6169831f412314	-0.002125507448031869
70	0xbf87cf1b492aa8f9	-0.011625493212097814
71	0x3f98abcaddae3e0f	0.024092836170494233
72	0x3fb4ca60ac52a1e2	0.08121303755854783
73	0xbf727a7ad85092dd	-0.004511337149811748
74	0xbf75e80521215a3e	-0.0053482246749668155
75	0xbf513abcafe3c822	-0.0010516016623651832
76	0x3f83d4625a2ed6f1	0.009682434441724537
77	0x3f73cf95145b6ddc	0.004836637822986014
78	0xbf85ff05de12fc33	-0.010740323867478896
79	0xbf740bdae9a0dd8a	-0.00489411843050592
80	0x3f9fb59a4fc52688	0.030966197127134026
81	0x3fb1da5ef3eeaf56	0.06973832564716295
82	0x3f9544d76e6eecf0	0.020770422091783425
83	0x3f6a797528b1260f	0.0032317436466982106
84	0x3f938e12568d2839	0.01909664777057449
85	0xbf7ad684a973eeb3	-0.006552236757894003
86	0x3f9a2c988b15e54f	0.025560744752032346
87	0x3faa9661095aed5c	0.0519285510940459
88	0xbfa91a1371020322	-0.04902706865778429
89	0x3fc43e059caa4a42	0.1581427588431144
90	0x3fddd7ad28206eb8	0.4662888423788263
91	0xbfb3eec61f7e98ff	-0.07786215084943036
92	0xbfb83bd87d405287	-0.0946631723202903
93	0xbfb534280ef24929	-0.08282709469702766
94	0x3fa95f56d20da2bb	0.04955550493361246
95	0xbfb29efb90f207a0	-0.07273838318545112
96	0x3fa4ae78b2d62439	0.040393611746431586
97	0xbf89c7dd59258e65	-0.012588242800752167
98	0xbfc39b5089be4f33	-0.15317732549430615
99	0xbfcbf5ed3653f2bf	-0.21844258454065899
100	0xbf506081b4f2fdab	-0.000999571482495169
101	0xbf62fee78cfabb44	-0.00231881355997335
102	0xbf721a01912639a8	-0.004419332619717421
103	0xbf7c8f0f35393b50	-0.006972369581105323
104	0xbf75b677fa475501	-0.005300968802165019
105	0xbf6537eec6c36a6d	-0.0025901473619403454
106	0xbf69759551c0bf19	-0.003107825888967752
107	0xbf527a0124d680e5	-0.0011277209444884803
108	0x3f22672ef3274279	0.00014040420644658209
109	0xbf9afb24702c62d6	-0.0263486569848251
110	0x3fa0e350ffdd00fc	0.032984286530792745
111	0xbf85372392b64d4e	-0.010359075465010161
112	0xbf9219aa90d9d479	-0.017676034060475552
113	0xbf88d2ea749b077d	-0.012121040042419423
114	0x3f4146cf5ce72da8	0.0005272400392696735
115	0xbf56f1eebe16170b	-0.0014004546613661263
116	0x3fa6357851908c9f	0.04337669368421725
117	0x3fbd125aeaaea9bd	0.11356132726238051
118	0xbf8f5657dcc2bd54	-0.015301405357915833
119	0xbf8c6fd0423587b5	-0.013885142345944826
120	0xbf8807cbda2f6f04	-0.011733620258318485
121	0xbf8825e962aa6b3f	-0.01179106075624292
122	0xbf5431bb61d06a1e	-0.0012325601485431224
123	0x3f75d47a3ff9959b	0.005329587496452427
124	0x3f7215f472b66f9d	0.004415469050765977
125	0x3f79e1a04db1b0db	0.006318689523237188
126	0x3f9c54541820e2fd	0.02766543767231421
127	0xbf7587366c1c176b	-0.005255901896594621
128	0x3f8177d6084133ff	0.008529350401795808
129	0x3f6931470e05439d	0.0030752551830705703
130	0xbf7063ff7c091283	-0.004001615511303516
131	0xbf79cab8af4b5584	-0.006296845841196389
132	0x3f654c85ed37b13d	0.002599965644313111
133	0x3f6884ddfbe36599	0.0029930434821891613
134	0xbf309615d46149a0	-0.0002530864043183371
135	0x3f7c1a407dd1213b	0.006860973281682721
136	0x3f523cd29855b662	0.0011131340591775886
137	0xbf6faba9e4d378e3	-0.0038660352935116923
138	0x3f7065795a00802c	0.004003023175783976
139	0xbf52104049a023ef	-0.0011025073822585848
140	0x3f5f673dc98b7f8c	0.0019167045012906418
141	0xbf4ff60100b1931b	-0.0009753708740275231
142	0x3f82eb808ee5266b	0.009238247261822615
143	0x3f8035d8458741ea	0.007915200826489294
144	0x3f843f6089ebb746	0.009886507233627061
145	0xbf96d1a0bb6cfff2	-0.022284041823922913
146	0xbf926b5ed1d7d2d5	-0.017987710531047824
147	0x3f87b768022a5454	0.011580288473206725
148	0xbf87c4d9c5b8df47	-0.011605931612492916
149	0xbf8f72adbce52403	-0.015355450942154297
150	0xbf942cfaf998e617	-0.01970283649845869
151	0xbf971bf1e071cc88	-0.022567538570410522
152	0xbfa38ffc440d78fe	-0.038207896525578974
153	0xbfa1cb667b306753	-0.03475494626782329
154	0xbf7f8e59e574bf0b	-0.0077041160177910946
155	0x3f7dc6d94f41a3f5	0.007269715180975735
156	0xbf5b5c3a1fad4f22	-0.001669937859976885
157	0xbf809f458adebe73	-0.008116286564330033
158	0xbf767f35caa6651f	-0.005492410777514749
159	0x3f8a9f5a1d5c17e5	0.012999252339351794
160	0xbfa0af1ee7ea2d01	-0.032586065111070546
161	0xbfb0335a6e984b32	-0.06328358841009843
162	0xbf985c9b63973066	-0.023790767625357388
163	0x3f2214c49f7181cc	0.00013794803791978975
164	0xbf6241ac06db26e1	-0.0022285804651332873
165	0x3f5ca45c3f18f554	0.0017481709331968647
166	0xbf5da64e2f74dd8a	-0.0018096698311874404
167	0x3f5b659430596ab7	0.0016721675068739736
168	0x3f512e43628a7803	0.0010486276679908541
169	0xbf72eedfabed14b6	-0.004622338978895238
170	0xbf7b39bc32e24471	-0.006646857406068838
171	0x3f81f0bb9bd80819	0.008759942716100299
172	0xbf90e55e0349cdad	-0.016499966574384285
173	0xbf80b0321660864f	-0.008148566539662698
174	0xbf6d1b308619c9a6	-0.003553004048449898
175	0xbf7d158b1ddc9f80	-0.007100623535542527
176	0xbf538bdcfa3da275	-0.0011930139525821147
177	0x3f7ce2fb4749f344	0.007052403980762293
178	0x3f827c0bf1325754	0.00902566270660158
179	0x3f96226fdfd4bf5a	0.021615741764605324
180	0x3fa8066a7200aca8	0.04692394868501398
181	0xbfa1abf1d07d1953	-0.03451495809581453
182	0xbfb6d0fba3f679c3	-0.08912632706640182
183	0x3fa22c342ae8e76e	0.035493498075495164
184	0xbfac6eb6ac161a96	-0.05553217745459908
185	0x3fb97f1123801a16	0.09959513775547921
186	0xbf85c2454026f78d	-0.010624447841901996
187	0xbfab20363fb8613d	-0.05298013236842045
188	0x3f7957582b0b29f5	0.006186813742440557
189	0x3fb0d61022861d9d	0.06576634257191079
190	0xbfa71e835d632ada	-0.045154671811891325
191	0xbfb8a29c908d3432	-0.09623125580874684
192	0xbfc3c2e68a39412f	-0.15438539265824988
193	0x3fbc7a81d687d69b	0.11124431121410298
194	0x3fc946b465ac59cf	0.19747023548616346
195	0xbfb53601d6c00573	-0.08285533421441986
196	0xbfa44d6352d28406	-0.039652923450610486
197	0xbfbf3b9541d63189	-0.12200291497555872
198	0xbf831970189a9ffa	-0.009325862646917916
199	0x3f7ca4628ec721ac	0.006992707244031154
200	0x3f5540674ec976bd	0.0012970932831630054
201	0x3f82227586f69c61	0.008854787999395155
202	0xbf928c3dbe14768b	-0.01811310265212866
203	0x3f8c46fb96525182	0.013807263874959789
204	0xbf846a6d941fdcec	-0.009968620379352498
205	0xbf8cef45bf09f965	-0.014128250973268927
206	0xbf7e9163988f9b6b	-0.007462872549672687
207	0x3f8cbb56a1bc7b26	0.01402919465141179
208	0x3f6e82875f657e45	0.003724350356762137
209	0xbf5e8c7309cc73d9	-0.001864540426317554
210	0x3f4a0ddedbb236b6	0.0007951105284449065
211	0xbf7f44f2cfc6f9a3	-0.0076341137723247325
212	0x3f73a14865ab7b47	0.004792483140333931
213	0xbf563f735de1a371	-0.0013579012516180234
214	0xbf7cbdc8b143af4d	-0.007016929583396903
215	0xbf8324f312d30f16	-0.009347819339729873
216	0x3f819cfb0e31ba23	0.00860019814555552
217	0xbf5adc4e2ef30c6d	-0.0016394389638641163
218	0xbf1aa6b674d715cc	-0.0001016663420250953
219	0xbf58fc2585116a00	-0.0015249601749675046
220	0x3f74474adac4bbd7	0.004950802231447469
221	0xbf69b18081938a2c	-0.0031363973508729184
222	0x3f5db2922ccd85cc	0.001812594174417692
223	0x3f711bc124956c2c	0.0041768593449332085
224	0x3f753ec187bd12cb	0.0051868018889009255
225	0xbf71f2421080277c	-0.0043814259188453795
226	0xbf164ef93921cd80	-8.510013711475993e-05
227	0x3f207a91e68ad5db	0.0001257231808914756
228	0x3f12abc599dd6057	7.122415123939192e-05
229	0xbf0129719f856480	-3.273370743057339e-05
230	0x3f01d8ec1a0538cd	3.4041123628912596e-05
231	0xbf235fd7d06cfeaa	-0.00014781484079583646
232	0x3ef7e4d7a1a09ab0	2.278701331461891e-05
233	0xbf24a8ba0f79307d	-0.00015761634107247852
234	0xbf1a7e9eb260ab50	-0.00010106891258547285
235	0x3f18dd5af30c99d3	9.48511849513175e-05
236	0x3ee3b3a0e0a6f18c	9.394490025787355e-06
237	0x3eef93c4b3266919	1.505719192067662e-05
238	0x3f24076cf1d1c4ee	0.0001528091897032078
239	0xbf3a28103486600c	-0.00039911647447743513
240	0x3f1b8e2c5343b1fc	0.00010511537113062208
241	0x3f34cf47de3bf2a0	0.0003175306758150063
242	0xbf41850e3aa98088	-0.0005346602895990463
243	0xbf0d529010e0c7e6	-5.592825083090818e-05
244	0xbf499f3829ce09cb	-0.0007819198832382188
245	0x3f248f3e4202cc4a	0.0001568568704946891
246	0x3f5a488326770bcb	0.0016042023433875281
247	0xbf614384b8f2ef83	-0.0021073906169401537
248	0x3f03249247349ede	3.651210217930715e-05
249	0x3f7131fc0ca64435	0.004198059623733254
250	0xbf7846a155acd7b1	-0.0059267332206242454
251	0xbf510cd4f00e91f1	-0.0010406569929070043
252	0x3f7703bcce83c8b3	0.005618798757710919
253	0x3f617288c30c3330	0.00212980948743393
254	0x3f5a7584d2981e9b	0.0016149327369720304
255	0x3f476e22f24da45f	0.0007150335919564702
